Convolution NN from scratch/part2-pytorch/checkpoints/vanillacnn.pth (torch, 236703 bytes, 4 tensors)

conv.weight f4 [32, 3, 7, 7]
0	0x3dbca171	0.0921048
1	0x3da68cee	0.08132349
2	0x3db37a7d	0.08763597
3	0xbd28660e	-0.041112952
4	0xbd79b3d0	-0.0609625
5	0x3dbcd489	0.09220225
6	0x3d7ef817	0.062248316
7	0xbc121fe8	-0.00891874
8	0xbc864481	-0.016390087
9	0x3d50201b	0.05081187
10	0x3d962d80	0.07332897
11	0xbd9aa01a	-0.07550068
12	0x3d44489e	0.047920816
13	0x3c1edfd1	0.009696917
14	0x3d4f5868	0.05062142
15	0xbd4773d3	-0.048694443
16	0xba692274	-0.00088933785
17	0xbda9fe50	-0.083004594
18	0xbda01553	-0.07816567
19	0x3d367c8d	0.044552375
20	0xbd6ba9a6	-0.057534836
21	0x3d6b2d7e	0.05741643
22	0xbca98dfe	-0.02069759
23	0x3d27fb4a	0.041011132
24	0xbd67bc1f	-0.05657589
25	0xbd3283fb	-0.043582898
26	0xbd2406ec	-0.040045664
27	0x3d104d1f	0.0352298
28	0xbcf5afdb	-0.029991081
29	0xbd456f05	-0.04820158
30	0x3d7d3bda	0.061824657
31	0xbc3acec8	-0.01140184
32	0xbce724a7	-0.02821572
33	0xbd8d7610	-0.06907284
34	0x3d8aa572	0.067698374
35	0xbd73270f	-0.05936342
36	0xbd3ce320	-0.04611504
37	0x3d55e0de	0.052216403
38	0x3c23a9fc	0.009989258
39	0xbc0a6c14	-0.008448619
40	0xbd6f84b0	-0.05847615
41	0x3d851fbd	0.06500194
42	0x3d7201b0	0.05908364
43	0x3d1674bd	0.036732424
44	0xbd8c631f	-0.06854843
45	0x3cfaeeb8	0.030631408
46	0xbc9cf3b4	-0.019159175
47	0x3d9afadf	0.07567381
48	0xbd8a50e9	-0.06753714
49	0x3ca12f95	0.01967601
50	0x3d431460	0.047626853
51	0x3d93f8e4	0.072252065
52	0x3d9de556	0.07709758
53	0x3ccfea83	0.025380379
54	0x3d1d7eb0	0.038450897
55	0xbd661da1	-0.0561806
56	0x3d4315cc	0.04762821
57	0xbd782fa2	-0.0605923
58	0x3d3a6965	0.04551067
59	0x3d6e231e	0.05813896
60	0x3d05cee0	0.032667994
61	0xbbb51b1f	-0.0055269147
62	0xbb24126c	-0.0025035394
63	0xbda47c79	-0.08031554
64	0xbd14eb8f	-0.03635746
65	0xbd4b6225	-0.049654145
66	0xbd7a1a7e	-0.06106042
67	0xbd901cc6	-0.07036738
68	0x3c83e66d	0.016101087
69	0x3c984017	0.018585248
70	0xbda6eeb3	-0.08150997
71	0xbcc92f4d	-0.024558688
72	0x3cc06459	0.02348535
73	0xbc7f8b84	-0.015597228
74	0xbcef8b45	-0.029241214
75	0xbda9b7f8	-0.082870424
76	0xbc34f22c	-0.011044066
77	0xbd834e24	-0.064113885
78	0xbd4e30b9	-0.050339434
79	0x3d8f4178	0.06994909
80	0xbb7a07da	-0.0038151653
81	0xbd03d1b8	-0.032182425
82	0xbd27a959	-0.040932987
83	0x3d87c613	0.066295765
84	0x3d823ed3	0.06359639
85	0xbd867d68	-0.06566888
86	0xbcd840de	-0.026398119
87	0x3cdeea3c	0.027211301
88	0xbd664df2	-0.05622668
89	0x3ca9cff7	0.020729048
90	0xbcf85b96	-0.03031711
91	0xbcbe9f84	-0.023269422
92	0xbcd6d241	-0.026223304
93	0x3da53f13	0.08068671
94	0x3d85e021	0.0653689
95	0xbd972ae9	-0.07381231
96	0x3c944341	0.018098475
97	0x3d96e3d5	0.07367674
98	0xbcab4556	-0.020907085
99	0x3db3c376	0.087775156
100	0x3d3f8aaa	0.0467631
101	0xbc2c0818	-0.010499977
102	0x3d76d011	0.06025702
103	0xbd6bf209	-0.05760387
104	0x3d0e936e	0.03480857
105	0xbcb3c2d2	-0.021943484
106	0x3d1e6562	0.038670905
107	0xbd8e9730	-0.069624305
108	0xbc528ef4	-0.0128514655
109	0xbc932048	-0.017959729
110	0xbcb81f71	-0.02247593
111	0x3cf965ca	0.030444045
112	0x3c33f0fc	0.010982748
113	0x3c9a0209	0.018799799
114	0xbd47412d	-0.04864614
115	0x3c0c5a9a	0.008566523
116	0x3d0ee999	0.034890745
117	0x3d0f3441	0.034961943
118	0xbd78cacf	-0.06074029
119	0xbd9413e8	-0.07230359
120	0xbace63bc	-0.0015746276
121	0x3c3bcfa2	0.011463078
122	0x3cc0fe89	0.023558872
123	0x3cfa70eb	0.030571422
124	0xbd6b6324	-0.057467595
125	0xbcf3aed3	-0.029746449
126	0xbc1939d3	-0.009352165
127	0x3d2aadda	0.041669704
128	0xbd1afdf7	-0.037839856
129	0xbc9bc5ac	-0.019015156
130	0x3d3c740b	0.046009105
131	0x3d7125e4	0.058874026
132	0x3c0051f4	0.007832039
133	0x3ce47a3c	0.027890317
134	0x3d899674	0.0671815
135	0x3cb0271f	0.02150303
136	0xbd242c76	-0.040081464
137	0xbd92d443	-0.07169392
138	0xbd8ee585	-0.06977371
139	0xbce2e897	-0.027698798
140	0x3d87a4a8	0.066232026
141	0xbd90c978	-0.07069677
142	0x3d75642c	0.059909984
143	0xba95e908	-0.0011437247
144	0xbd5b7227	-0.05357566
145	0x3d33d056	0.043899857
146	0xbd54e34f	-0.05197459
147	0x3d8412f7	0.0644893
148	0xbd39892e	-0.04529684
149	0xbb10326e	-0.0022002715
150	0x3d5f36ad	0.054495502
151	0xbd99f1ed	-0.07516847
152	0x3cec9c11	0.028883012
153	0x3b2e0654	0.0026554065
154	0x3d68075b	0.05664764
155	0x3cce0f23	0.025153702
156	0x3da3660f	0.079784505
157	0xbd8bba7a	-0.06822677
158	0xbd661b64	-0.056178465
159	0xbc888951	-0.01666704
160	0xbcc77030	-0.024345487
161	0x3c8c6b49	0.017141001
162	0x3d51391b	0.05107985
163	0xbc5ed0ec	-0.013599616
164	0xbd9176ad	-0.07102714
165	0xbc8b1f15	-0.016982595
166	0x3d7c639b	0.06161843
167	0x3b863565	0.0040957206
168	0x3cbb104e	0.022834923
169	0xbc328507	-0.010895974
170	0x3d55100a	0.05201725
171	0x3c6ab948	0.014326401
172	0xba24b7a0	-0.0006283466
173	0x3d97db46	0.0741487
174	0x3cb27aa2	0.021786992
175	0x3d59e20c	0.05319409
176	0x3d74f94d	0.059808064
177	0xbb84e5b4	-0.004055703
178	0x3d3cb9d1	0.046075646
179	0x3acf80a9	0.001583119
180	0x3d814149	0.0631128
181	0x3d94e982	0.072711006
182	0x3c2593c6	0.010106033
183	0x3da942b1	0.082646735
184	0x3da747bf	0.08167981
185	0x3d181694	0.037130907
186	0x3d8c3dc9	0.06847722
187	0x3daab3fa	0.08335109
188	0x3da312f1	0.07962597
189	0x3d99c22b	0.07507738
190	0x3d5bd713	0.053671908
191	0x3d93b45f	0.072121374
192	0xbd761f8c	-0.06008868
193	0x3d3798e0	0.044823527
194	0x3d7bfdf9	0.061521504
195	0xbd0fe718	-0.035132498
196	0x3d1eda14	0.038782194
197	0x3d45b01e	0.04826366
198	0xbd0a2333	-0.033724975
199	0xbc777824	-0.015104327
200	0xbd588801	-0.05286408
201	0xbd598ca5	-0.053112645
202	0xba2cd7c5	-0.00065934315
203	0xbd0fc1ee	-0.035097055
204	0xbd5927e7	-0.05301657
205	0x3d4ef7cb	0.050529283
206	0x3d9abea1	0.07555891
207	0x3c2e4fd8	0.010639153
208	0xbd223ae0	-0.03960693
209	0x3b3c9885	0.0028777432
210	0xbcbb5a47	-0.022870196
211	0xbc53e608	-0.012933262
212	0x3bf81a63	0.007571505
213	0x3ba115ec	0.0049159434
214	0x3cad540e	0.021158244
215	0x3ced7e3e	0.028990861
216	0x3c7825ab	0.0151456995
217	0x3d5ec313	0.054385256
218	0x3b9ced17	0.0047890055
219	0xbc24ab80	-0.010050654
220	0x3d725689	0.059164558
221	0xbd965007	-0.07339483
222	0xbd7d8253	-0.061891865
223	0x3d960801	0.073257454
224	0xbcd22f1b	-0.025657227
225	0x3d48445a	0.04889331
226	0xbd963d1b	-0.07335874
227	0x3da7c872	0.08192529
228	0xbda53940	-0.0806756
229	0x3cf08162	0.02935857
230	0xbcae64d3	-0.021288311
231	0xbd04c7c0	-0.03241706
232	0x3b894dae	0.0041901683
233	0x3d9698a2	0.07353331
234	0xbc14d30c	-0.009083521
235	0x3bf90a80	0.0076001287
236	0xbd8060e9	-0.06268484
237	0xbd239788	-0.039939433
238	0xba33d278	-0.00068596704
239	0x3d802974	0.062579066
240	0x3d023308	0.03178695
241	0xbd856cb9	-0.06514878
242	0xbc1d8b63	-0.009615752
243	0x3cc70455	0.024294058
244	0x3d28a2c1	0.04117084
245	0xbd304ce2	-0.04304207
246	0xbbd95cb1	-0.006633364
247	0x3d2c6ae9	0.042094145
248	0xbd4c881d	-0.049934495
249	0x3d6b79be	0.05748915
250	0xbd9d3880	-0.07676792
251	0x3d52eaa4	0.051493302
252	0x3daacea4	0.08340195
253	0xbd27772f	-0.040885147
254	0xbce24fb4	-0.027625896
255	0xbda01e6d	-0.07818303

conv.bias f4 [32]
0	0x3bee12c0	0.007265419
1	0xbcb052ef	-0.02152392
2	0x3d09c4a4	0.033634797
3	0xbcd415af	-0.025889246
4	0xbd9635e3	-0.07334497
5	0x3d35d246	0.044389986
6	0x3d9604d5	0.073251404
7	0xbd6afadb	-0.05736814
8	0x3d2c539b	0.04207192
9	0xbca32d57	-0.01991908
10	0xbcfb95f8	-0.03071116
11	0xbd08ab76	-0.033366643
12	0x3d3091b5	0.043107707
13	0xbca5cc7c	-0.020239107
14	0xbd175f89	-0.036956344
15	0x3d52b165	0.051438708
16	0xbccd42dc	-0.025056295
17	0xbd7cf446	-0.061756395
18	0x3d27d5a7	0.04097524
19	0xbce31e1e	-0.027724322
20	0x3cff880d	0.031192804
21	0x3d23c8f8	0.03998658
22	0xbd311514	-0.043232992
23	0xbd981994	-0.07426754
24	0xbd3fb96e	-0.0468077
25	0xbd4d446b	-0.050114077
26	0x3cd21b77	0.025647862
27	0xbd0acc14	-0.03388603
28	0xbc9efbc7	-0.019407166
29	0xbcc99af9	-0.02461003
30	0x3d56639b	0.052341085
31	0x3d7e4d93	0.0620857

fc.weight f4 [10, 5408]
0	0xbc052ae5	-0.008127903
1	0xbb9b04fa	-0.004730818
2	0xbc13e236	-0.009026101
3	0xbc136458	-0.008996092
4	0xbc2aeb6c	-0.0104321055
5	0xbba4f6f8	-0.005034324
6	0xbc8ca26f	-0.017167298
7	0xbc5fcafa	-0.013659233
8	0x3bb5a376	0.0055431677
9	0xbc80ae56	-0.01570813
10	0xbbecac36	-0.0072226776
11	0xbc8c69c5	-0.017140279
12	0xbba94c22	-0.0051665464
13	0xbc6a27f5	-0.014291753
14	0xbbf858f3	-0.007578963
15	0xbc88773e	-0.016658422
16	0xbb7c7c14	-0.0038526105
17	0x3adf64d7	0.0017043602
18	0x3b856137	0.004070427
19	0xbbac5722	-0.0052594105
20	0x3bc07fa3	0.0058745905
21	0xbc8aad99	-0.016928481
22	0xbc85db1e	-0.016339835
23	0xbc2fa246	-0.010719841
24	0x3b63d91f	0.0034766865
25	0xbc6297bb	-0.013830121
26	0x3bc040a3	0.0058670803
27	0x3c00c11d	0.007858542
28	0xbb90f49d	-0.0044236914
29	0xbb45efac	-0.003020267
30	0xbc3b8a38	-0.011446528
31	0x3bbd3e02	0.005775214
32	0xbc707b72	-0.014677869
33	0xbb60283f	-0.0034203676
34	0xbc15dd88	-0.009147055
35	0x3becc546	0.0072256653
36	0xbc2f85d5	-0.01071306
37	0x398eedac	0.0002726143
38	0x3bccb901	0.00624764
39	0x3c1fb3b7	0.009747437
40	0x399e2264	0.0003016173
41	0xba81923e	-0.0009885503
42	0xbb92eaea	-0.0044835703
43	0xbc4cb526	-0.012494361
44	0xbc6d3676	-0.0144783165
45	0x3b012cc7	0.0019710527
46	0xbb1311f3	-0.0022441118
47	0x3b61d5d7	0.0034459734
48	0xbc12e05a	-0.008964622
49	0xbc57fc7b	-0.013182755
50	0xbc59d0a7	-0.0132943755
51	0x3c2a0b9c	0.010378744
52	0xbb0e1021	-0.0021677094
53	0x3c0ef936	0.008726409
54	0xbb4a94df	-0.0030911488
55	0xbb895672	-0.0041912133
56	0xbb31f298	-0.0027152654
57	0xbc5e8359	-0.01358112
58	0x3c25fcad	0.010131043
59	0xbbd8aa18	-0.0066120736
60	0x3c0738d2	0.008253293
61	0x3af581ce	0.0018730701
62	0xbbf0070e	-0.0073250597
63	0x3c00ed50	0.00786908
64	0x3c16d618	0.009206317
65	0xbb94f22a	-0.00454547
66	0x3baa0d2f	0.00518956
67	0x3c1820af	0.009285136
68	0x3b9eb859	0.0048437533
69	0x3c1409e6	0.009035563
70	0x3b99f7d5	0.0046987333
71	0x3be7ed4c	0.0070778485
72	0x3b9bef87	0.0047587785
73	0xba3aab9a	-0.00071209075
74	0x3c2c6cb6	0.010523966
75	0xba330004	-0.00068283104
76	0x3c2096bf	0.009801566
77	0x3c5b9ae9	0.013403633
78	0xbb2b0690	-0.002609644
79	0x3b2360fb	0.002492963
80	0xbbd8d1ad	-0.006616792
81	0xbc0e584d	-0.008688045
82	0x3b88d954	0.004176298
83	0x3bfa92e8	0.007646907
84	0x3c18b2ce	0.009319974
85	0x3c4b6139	0.012413316
86	0x3c25a5ae	0.010110302
87	0xbb176ece	-0.0023106816
88	0x3b5efb17	0.0034024173
89	0xba93e8e1	-0.0011284613
90	0x3be8b40d	0.007101542
91	0xbbd2653a	-0.0064207586
92	0xbc086468	-0.00832472
93	0x3c5bbbd5	0.013411482
94	0xbb1526e4	-0.0022758776
95	0xbb8c55fd	-0.0042827115
96	0xbbad56c3	-0.005289884
97	0x3c69e525	0.014275824
98	0xbb2895d5	-0.0025724072
99	0x3c62eb32	0.01385002
100	0x3c875a08	0.016522422
101	0x3c1f7a04	0.009733681
102	0x3c132a19	0.008982205
103	0x3c450840	0.012025893
104	0xbb0bba80	-0.002132088
105	0xbb1ac06b	-0.0023613225
106	0xb998386d	-0.0002903374
107	0x3c6125b1	0.0137418965
108	0xbbdc9ab9	-0.0067323116
109	0x3bdd2f64	0.006750034
110	0x3b0f709f	0.0021887196
111	0x3c14a980	0.009073615
112	0xba011b22	-0.00049250026
113	0xbafc0fdb	-0.00192308
114	0x3bc0e0e6	0.005886185
115	0x3be2c383	0.0069202795
116	0xba20772d	-0.0006121274
117	0xbb75fdc1	-0.0037535282
118	0x3c20767e	0.009793876
119	0xbc23e14b	-0.0100024445
120	0xbac71fa3	-0.0015191924
121	0x3c32acbb	0.01090544
122	0x3c855b5a	0.016278911
123	0xbbe8823f	-0.0070956047
124	0x3b5aeba2	0.0033404608
125	0x3be88d7a	0.0070969434
126	0x3bb2b92a	0.005454202
127	0xbb949756	-0.004534642
128	0x3b55eb85	0.0032641601
129	0x3bc48578	0.005997356
130	0xbc4ee8a4	-0.012628708
131	0xbc3ee938	-0.011652283
132	0x3bb5ef87	0.0055522355
133	0xbc368b02	-0.0111415405
134	0xb8b898f9	-8.802297e-05
135	0x3b5d1047	0.0033731626
136	0x3c259263	0.010105702
137	0x3c2759a8	0.010214247
138	0xbb8614bb	-0.0040918267
139	0xbb4cd410	-0.0031254329
140	0x3b92b7a3	0.0044774576
141	0x3bf44ddf	0.007455572
142	0xbbdb5cad	-0.0066943974
143	0xbc562f20	-0.013072759
144	0xba304fed	-0.0006725777
145	0xb94c1f45	-0.00019466605
146	0x3babc01d	0.0052414075
147	0xbb65e490	-0.003507886
148	0xbc33b507	-0.010968453
149	0xbbe5a4be	-0.007008164
150	0x3c0e9517	0.008702538
151	0xbb8d9da4	-0.0043217707
152	0x3b878ede	0.004136904
153	0x3b3e70de	0.0029058973
154	0x3b0aee5b	0.00211992
155	0xbc00b438	-0.0078554675
156	0x3a6df470	0.00090772565
157	0xba9b6b10	-0.0011857469
158	0xbbd59442	-0.006517918
159	0xbc7e2239	-0.015511089
160	0xbc306bae	-0.01076786
161	0x3a7fea96	0.0009762434
162	0xbb6cf97f	-0.0036159453
163	0xbbbb04e0	-0.0057073683
164	0x3bdb3018	0.006689083
165	0x3b2d6637	0.002645863
166	0xbc868e4b	-0.016425272
167	0xb9aab039	-0.00032556223
168	0x3c293a7a	0.010328883
169	0xbc6bfd36	-0.014403632
170	0xbc3303ae	-0.01092617
171	0x3ba30fab	0.004976233
172	0xbc081c1e	-0.008307485
173	0xbc37fd71	-0.011229859
174	0xbc0a990a	-0.008459339
175	0xbc831aa2	-0.01600391
176	0x3ba5765e	0.005049511
177	0xbbd2a37c	-0.0064281803
178	0x3c1155de	0.00887057
179	0x3b6e7400	0.003638506
180	0xbc379f74	-0.01120745
181	0xbc4dd2da	-0.012562478
182	0x3b7e09ac	0.003876309
183	0x3c2f5b14	0.010702867
184	0xbc6b7294	-0.014370579
185	0x3c0980d6	0.008392533
186	0xbbb5fc0b	-0.0055537275
187	0x3aafe621	0.0013420024
188	0x3a3d133e	0.0007212645
189	0xbc852f95	-0.01625804
190	0xbbc3b895	-0.0059729316
191	0xbc27861f	-0.010224848
192	0xbc433374	-0.011914123
193	0x3b6a7437	0.0035774836
194	0x3adf2b91	0.0017026534
195	0xbbd7c3d6	-0.0065846248
196	0xbc2ca240	-0.01053673
197	0x3bdd4d84	0.0067536253
198	0x3c093ebb	0.0083767725
199	0x3af62764	0.001878005
200	0x3abc55ef	0.0014368872
201	0xbc83f9e8	-0.016110376
202	0x3acbcf98	0.0015549539
203	0x3b6655e8	0.003514642
204	0xbbfd312d	-0.0077268095
205	0x3a5360d5	0.00080634403
206	0x3abf6d0a	0.001460464
207	0x3c290c9f	0.0103179505
208	0x3c06057d	0.008180019
209	0x3b0c9319	0.0021449982
210	0x3bc256fb	0.005930779
211	0xbbe10a99	-0.0068677184
212	0xbc48354f	-0.012219741
213	0x3bb21a54	0.0054352675
214	0xba5acd2f	-0.0008346615
215	0xbb472698	-0.0030387994
216	0x3c2bdd45	0.0104897665
217	0x3b20603c	0.0024471423
218	0xbc5e3b84	-0.013563994
219	0x3bb9ce65	0.005670356
220	0x3b832725	0.004002469
221	0x3c18cb5d	0.009325829
222	0xbab15c92	-0.0013531616
223	0x3b922b30	0.0044607148
224	0xba0af589	-0.000530087
225	0xbb30a87c	-0.0026955893
226	0x3b55a42a	0.003259907
227	0xbc270308	-0.010193594
228	0xbc09feb7	-0.008422545
229	0x3c05c016	0.008163473
230	0xbc5f8c68	-0.013644315
231	0xbc0cbeae	-0.008590383
232	0x3bf8a784	0.007588329
233	0xb94ddcfe	-0.0001963265
234	0xbb02ca76	-0.0019957102
235	0xb992fef2	-0.0002803724
236	0x3bf65203	0.007517101
237	0xbbec4889	-0.0072107953
238	0xbc117099	-0.008876943
239	0x3c25af48	0.010112591
240	0x3bf8eae7	0.007596362
241	0x3be709d7	0.0070507335
242	0x3bb47090	0.0055065826
243	0xbc526802	-0.01284218
244	0xbbb24390	-0.005440183
245	0x3b22c7bb	0.0024838287
246	0x3bedba44	0.0072548706
247	0xbb9cd49a	-0.0047860863
248	0xbb126c63	-0.0022342436
249	0xbbfd9558	-0.0077387504
250	0x3c27d2bd	0.010243115
251	0x3b925161	0.0044652675
252	0xbc3357ed	-0.010946256
253	0xbc528471	-0.012848959
254	0x3aab0e32	0.0013050495
255	0x3c46b476	0.012127986

fc.bias f4 [10]
0	0x3c4d4e6b	0.012530903
1	0xbc91138b	-0.017709514
2	0x3c495795	0.012288948
3	0xbb29ccb0	-0.0025909357
4	0x3c9572d6	0.018243235
5	0x3bcebe6c	0.006309321
6	0x3c4e011d	0.012573508
7	0x3b821291	0.0039694984
8	0x3c160f21	0.00915888
9	0xbbc36508	-0.0059629716
